…
[18:06:07.948456] Loaded Index: blocks.11.attn.proj.weight from Saved Weights
[18:06:07.958073] decoder_blocks.0.mlp.fc1.weight not found in Init Model
[18:06:07.958076] decoder_blocks.1.attn.qkv.weight not found in Init Model
[18:06:07.962986] [18:06:07.962986] decoder_blocks.1.norm1.bias not found in Init Modeldecoder_blocks.0.mlp.fc1.bias not found in Init Model

[18:06:07.971482] Loaded Index: blocks.0.attn.qkv.weight from Saved Weights
[18:06:07.963978] Loaded Index: blocks.4.norm1.weight from Saved Weights
[18:06:07.991269] Model = VisionTransformer(
  (patch_embed): PatchEmbed(
    (proj): Conv2d(3, 384, kernel_size=(16, 16), stride=(16, 16))
  )
  (pos_drop): Dropout(p=0.0, inplace=False)
  (blocks): ModuleList(
    (0): Block(
      (norm1): LayerNorm((384,), eps=1e-06, elementwise_affine=True)
      (attn): Attention(
        (qkv): Linear(in_features=384, out_features=1152, bias=True)
        (attn_drop): Dropout(p=0.0, inplace=False)
        (proj): Linear(in_features=384, out_features=384, bias=True)
        (proj_drop): Dropout(p=0.0, inplace=False)
      )
      (drop_path): Identity()
      (norm2): LayerNorm((384,), eps=1e-06, elementwise_affine=True)
      (mlp): Mlp(
        (fc1): Linear(in_features=384, out_features=1536, bias=True)
        (act): GELU(approximate='none')
        (fc2): Linear(in_features=1536, out_features=384, bias=True)
        (drop): Dropout(p=0.0, inplace=False)
      )
    )
    (1-11): 11 x Block(
      (norm1): LayerNorm((384,), eps=1e-06, elementwise_affine=True)
[18:06:07.955212] decoder_blocks.1.mlp.fc2.weight not found in Init Model
[18:06:07.948464] Loaded Index: blocks.11.attn.proj.bias from Saved Weights
[18:06:07.958077] decoder_pred.bias not found in Init Model
[18:06:07.958079] decoder_blocks.0.mlp.fc1.bias not found in Init Model
[18:06:07.958082] decoder_blocks.1.attn.qkv.bias not found in Init Model
[18:06:07.962992] [18:06:07.962992] decoder_blocks.1.attn.qkv.weight not found in Init Modeldecoder_blocks.0.mlp.fc2.weight not found in Init Model

[18:06:07.971489] Loaded Index: blocks.0.attn.qkv.bias from Saved Weights
[18:06:07.963981] Loaded Index: blocks.3.norm2.bias from Saved Weights
[18:06:07.963984] Loaded Index: blocks.4.norm1.bias from Saved Weights
      (attn): Attention(
        (qkv): Linear(in_features=384, out_features=1152, bias=True)
        (attn_drop): Dropout(p=0.0, inplace=False)
        (proj): Linear(in_features=384, out_features=384, bias=True)
        (proj_drop): Dropout(p=0.0, inplace=False)
      )
      (drop_path): DropPath()
      (norm2): LayerNorm((384,), eps=1e-06, elementwise_affine=True)
      (mlp): Mlp(
        (fc1): Linear(in_features=384, out_features=1536, bias=True)
        (act): GELU(approximate='none')
        (fc2): Linear(in_features=1536, out_features=384, bias=True)
        (drop): Dropout(p=0.0, inplace=False)
      )
    )
  )
  (head): Linear(in_features=384, out_features=14, bias=True)
  (fc_norm): LayerNorm((384,), eps=1e-06, elementwise_affine=True)
)
[18:06:07.991296] number of params (M): 21.67
[18:06:07.991308] base lr: 2.50e-04
[18:06:07.991315] actual lr: 1.00e-03
[18:06:07.991321] accumulate grad iterations: 1
[18:06:07.991327] effective batch size: 1024
[18:06:07.955218] decoder_blocks.1.mlp.fc2.bias not found in Init Model
[18:06:07.948471] Loaded Index: blocks.11.norm2.weight from Saved Weights
…
.qkv.bias', 'decoder_blocks.1.attn.proj.weight', 'decoder_blocks.1.attn.proj.bias', 'decoder_blocks.1.norm2.weight', 'decoder_blocks.1.norm2.bias', 'decoder_blocks.1.mlp.fc1.weight', 'decoder_blocks.1.mlp.fc1.bias', 'decoder_blocks.1.mlp.fc2.weight', 'decod[18:06:07.961828] Loaded Index: blocks.5.norm1.weight from Saved Weights
er_blocks.1.mlp.fc2.bias', 'decoder_norm.weight', 'decoder_norm.bias', 'decoder_pred.weight', 'decoder_pred.bias'])
[18:06:07.961836] Loaded Index: blocks.5.norm1.bias from Saved Weights
[18:06:07.992966] Model = VisionTransformer(
  (patch_embed): PatchEmbed(
    (proj): Conv2d(3, 384, kernel_size=(16, 16), stride=(16, 16))
  )
  (pos_drop): Dropout(p=0.0, inplace=False)
  (blocks): ModuleList(
    (0): Block(
      (norm1): LayerNorm((384,), eps=1e-06, elementwise_affine=True)
      (attn): Attention(
        (qkv): Linear(in_features=384, out_features=1152, bias=True)
        (attn_drop): Dropout(p=0.0, inplace=False)
        (proj): Linear(in_features=384, out_features=384, bias=True)
        (proj_drop): Dropout(p=0.0, inplace=False)
      )
      (drop_path): Identity()
      (norm2): LayerNorm((384,), eps=1e-06, elementwise_affine=True)
      (mlp): Mlp(
        (fc1): Linear(in_features=384, out_features=1536, bias=True)
        (act): GELU(approximate='none')
        (fc2): Linear(in_features=1536, out_features=384, bias=True)
        (drop): Dropout(p=0.0, inplace=False)
      )
    )
    (1-11): 11 x Block(
      (norm1): LayerNorm((384,), eps=1e-06, elementwise_affine=True)
[18:06:07.961844] Loaded Index: blocks.5.attn.qkv.weight from Saved Weights
      (attn): Attention(
        (qkv): Linear(in_features=384, out_features=1152, bias=True)
        (attn_drop): Dropout(p=0.0, inplace=False)
        (proj): Linear(in_features=384, out_features=384, bias=True)
        (proj_drop): Dropout(p=0.0, inplace=False)
      )
      (drop_path): DropPath()
      (norm2): LayerNorm((384,), eps=1e-06, elementwise_affine=True)
      (mlp): Mlp(
        (fc1): Linear(in_features=384, out_features=1536, bias=True)
        (act): GELU(approximate='none')
        (fc2): Linear(in_features=1536, out_features=384, bias=True)
        (drop): Dropout(p=0.0, inplace=False)
      )
    )
  )
  (head): Linear(in_features=384, out_features=14, bias=True)
  (fc_norm): LayerNorm((384,), eps=1e-06, elementwise_affine=True)
[18:06:07.961851] Loaded Index: blocks.5.attn.qkv.bias from Saved Weights
)
[18:06:07.992991] number of params (M): 21.67
[18:06:07.961859] Loaded Index: blocks.5.attn.proj.weight from Saved Weights
[18:06:07.993004] base lr: 2.50e-04
[18:06:07.993011] actual lr: 1.00e-03
[18:06:07.993018] accumulate grad iterations: 1
[18:06:07.993023] effective batch size: 1024
[18:06:07.961866] Loaded Index: blocks.5.attn.proj.bias from Saved Weights
[18:06:08.002210] Model = VisionTransformer(
  (patch_embed): PatchEmbed(
    (proj): Conv2d(3, 384, kernel_size=(16, 16), stride=(16, 16))
  )
  (pos_drop): Dropout(p=0.0, inplace=False)
  (blocks): ModuleList(
    (0): Block(
      (norm1): LayerNorm((384,), eps=1e-06, elementwise_affine=True)
      (attn): Attention(
        (qkv): Linear(in_features=384, out_features=1152, bias=True)
        (attn_drop): Dropout(p=0.0, inplace=False)
        (proj): Linear(in_features=384, out_features=384, bias=True)
        (proj_drop): Dropout(p=0.0, inplace=False)
      )
      (drop_path): Identity()
      (norm2): LayerNorm((384,), eps=1e-06, elementwise_affine=True)
      (mlp): Mlp(
        (fc1): Linear(in_features=384, out_features=1536, bias=True)
        (act): GELU(approximate='none')
        (fc2): Linear(in_features=1536, out_features=384, bias=True)
        (drop): Dropout(p=0.0, inplace=False)
      )
    )
    (1-11): 11 x Block(
      (norm1): LayerNorm((384,), eps=1e-06, elementwise_affine=True)
[18:06:07.961873] Loaded Index: blocks.5.norm2.weight from Saved Weights
      (attn): Attention(
        (qkv): Linear(in_features=384, out_features=1152, bias=True)
        (attn_drop): Dropout(p=0.0, inplace=False)
        (proj): Linear(in_features=384, out_features=384, bias=True)
        (proj_drop): Dropout(p=0.0, inplace=False)
      )
      (drop_path): DropPath()
      (norm2): LayerNorm((384,), eps=1e-06, elementwise_affine=True)
      (mlp): Mlp(
        (fc1): Linear(in_features=384, out_features=1536, bias=True)
        (act): GELU(approximate='none')
        (fc2): Linear(in_features=1536, out_features=384, bias=True)
        (drop): Dropout(p=0.0, inplace=False)
      )
    )
  )
  (head): Linear(in_features=384, out_features=14, bias=True)
  (fc_norm): LayerNorm((384,), eps=1e-06, elementwise_affine=True)
)
[18:06:07.961880] Loaded Index: blocks.5.norm2.bias from Saved Weights
[18:06:08.002232] number of params (M): 21.67
[18:06:07.961887] Loaded Index: blocks.5.mlp.fc1.weight from Saved Weights
[18:06:08.002244] base lr: 2.50e-04
[18:06:08.002252] actual lr: 1.00e-03
[18:06:08.002258] accumulate grad iterations: 1
[18:06:08.002264] effective batch size: 1024
[18:06:07.961894] Loaded Index: blocks.5.mlp.fc1.bias from Saved Weights
[18:06:08.003192] Model = VisionTransformer(
  (patch_embed): PatchEmbed(
    (proj): Conv2d(3, 384, kernel_size=(16, 16), stride=(16, 16))
  )
  (pos_drop): Dropout(p=0.0, inplace=False)
  (blocks): ModuleList(
    (0): Block(
      (norm1): LayerNorm((384,), eps=1e-06, elementwise_affine=True)
      (attn): Attention(
        (qkv): Linear(in_features=384, out_features=1152, bias=True)
        (attn_drop): Dropout(p=0.0, inplace=False)
        (proj): Linear(in_features=384, out_features=384, bias=True)
        (proj_drop): Dropout(p=0.0, inplace=False)
      )
      (drop_path): Identity()
      (norm2): LayerNorm((384,), eps=1e-06, elementwise_affine=True)
      (mlp): Mlp(
        (fc1): Linear(in_features=384, out_features=1536, bias=True)
        (act): GELU(approximate='none')
        (fc2): Linear(in_features=1536, out_features=384, bias=True)
        (drop): Dropout(p=0.0, inplace=False)
      )
    )
    (1-11): 11 x Block(
      (norm1): LayerNorm((384,), eps=1e-06, elementwise_affine=True)
[18:06:07.961902] Loaded Index: blocks.5.mlp.fc2.weight from Saved Weights
      (attn): Attention(
        (qkv): Linear(in_features=384, out_features=1152, bias=True)
        (attn_drop): Dropout(p=0.0, inplace=False)
        (proj): Linear(in_features=384, out_features=384, bias=True)
        (proj_drop): Dropout(p=0.0, inplace=False)
      )
      (drop_path): DropPath()
      (norm2): LayerNorm((384,), eps=1e-06, elementwise_affine=True)
      (mlp): Mlp(
        (fc1): Linear(in_features=384, out_features=1536, bias=True)
        (act): GELU(approximate='none')
        (fc2): Linear(in_features=1536, out_features=384, bias=True)
        (drop): Dropout(p=0.0, inplace=False)
      )
    )
  )
  (head): Linear(in_features=384, out_features=14, bias=True)
  (fc_norm): LayerNorm((384,), eps=1e-06, elementwise_affine=True)
[18:06:07.961908] Loaded Index: blocks.5.mlp.fc2.bias from Saved Weights
)
[18:06:08.003214] number of params (M): 21.67
[18:06:07.961916] Loaded Index: blocks.6.norm1.weight from Saved Weights
[18:06:08.003228] base lr: 2.50e-04
[18:06:07.961923] Loaded Index: blocks.6.norm1.bias from Saved Weights
[18:06:08.003235] actual lr: 1.00e-03
[18:06:08.003242] accumulate grad iterations: 1
[18:06:08.003248] effective batch size: 1024
[18:06:07.961930] Loaded Index: blocks.6.attn.qkv.weight from Saved Weights
[18:06:08.006426] Model = VisionTransformer(
  (patch_embed): PatchEmbed(
    (proj): Conv2d(3, 384, kernel_size=(16, 16), stride=(16, 16))
  )
  (pos_drop): Dropout(p=0.0, inplace=False)
  (blocks): ModuleList(
    (0): Block(
      (norm1): LayerNorm((384,), eps=1e-06, elementwise_affine=True)
      (attn): Attention(
        (qkv): Linear(in_features=384, out_features=1152, bias=True)
        (attn_drop): Dropout(p=0.0, inplace=False)
        (proj): Linear(in_features=384, out_features=384, bias=True)
        (proj_drop): Dropout(p=0.0, inplace=False)
      )
      (drop_path): Identity()
      (norm2): LayerNorm((384,), eps=1e-06, elementwise_affine=True)
      (mlp): Mlp(
        (fc1): Linear(in_features=384, out_features=1536, bias=True)
        (act): GELU(approximate='none')
        (fc2): Linear(in_features=1536, out_features=384, bias=True)
        (drop): Dropout(p=0.0, inplace=False)
      )
    )
    (1-11): 11 x Block(
      (norm1): LayerNorm((384,), eps=1e-06, elementwise_affine=True)
[18:06:07.961938] Loaded Index: blocks.6.attn.qkv.bias from Saved Weights
      (attn): Attention(
        (qkv): Linear(in_features=384, out_features=1152, bias=True)
        (attn_drop): Dropout(p=0.0, inplace=False)
        (proj): Linear(in_features=384, out_features=384, bias=True)
        (proj_drop): Dropout(p=0.0, inplace=False)
      )
      (drop_path): DropPath()
      (norm2): LayerNorm((384,), eps=1e-06, elementwise_affine=True)
      (mlp): Mlp(
        (fc1): Linear(in_features=384, out_features=1536, bias=True)
        (act): GELU(approximate='none')
        (fc2): Linear(in_features=1536, out_features=384, bias=True)
        (drop): Dropout(p=0.0, inplace=False)
      )
    )
  )
  (head): Linear(in_features=384, out_features=14, bias=True)
  (fc_norm): LayerNorm((384,), eps=1e-06, elementwise_affine=True)
)
[18:06:08.006449] number of params (M): 21.67
[18:06:07.961945] Loaded Index: blocks.6.attn.proj.weight from Saved Weights
[18:06:08.006465] base lr: 2.50e-04
[18:06:07.961953] Loaded Index: blocks.6.attn.proj.bias from Saved Weights
[18:06:08.006473] actual lr: 1.00e-03
[18:06:07.961960] Loaded Index: blocks.6.norm2.weight from Saved Weights
[18:06:08.006479] accumulate grad iterations: 1
…
.qkv.bias', 'decoder_blocks.1.attn.proj.weight', 'decoder_blocks.1.attn.proj.bias', 'decoder_blocks.1.norm2.weight', 'decoder_blocks.1.norm2.bias', 'decoder_blocks.1.mlp.fc1.weight', 'decoder_blocks.1.mlp.fc1.bias', 'decoder_blocks.1.mlp.fc2.weight', 'decod[18:06:07.985178] Loaded Index: blocks.8.norm1.weight from Saved Weights
er_blocks.1.mlp.fc2.bias', 'decoder_norm.weight', 'decoder_norm.bias', 'decoder_pred.weight', 'decoder_pred.bias'])
[18:06:07.985185] Loaded Index: blocks.8.norm1.bias from Saved Weights
[18:06:07.983253] Model = VisionTransformer(
  (patch_embed): PatchEmbed(
    (proj): Conv2d(3, 384, kernel_size=(16, 16), stride=(16, 16))
  )
  (pos_drop): Dropout(p=0.0, inplace=False)
  (blocks): ModuleList(
    (0): Block(
      (norm1): LayerNorm((384,), eps=1e-06, elementwise_affine=True)
      (attn): Attention(
        (qkv): Linear(in_features=384, out_features=1152, bias=True)
        (attn_drop): Dropout(p=0.0, inplace=False)
        (proj): Linear(in_features=384, out_features=384, bias=True)
        (proj_drop): Dropout(p=0.0, inplace=False)
      )
      (drop_path): Identity()
      (norm2): LayerNorm((384,), eps=1e-06, elementwise_affine=True)
      (mlp): Mlp(
        (fc1): Linear(in_features=384, out_features=1536, bias=True)
        (act): GELU(approximate='none')
        (fc2): Linear(in_features=1536, out_features=384, bias=True)
        (drop): Dropout(p=0.0, inplace=False)
      )
    )
    (1-11): 11 x Block(
      (norm1): LayerNorm((384,), eps=1e-06, elementwise_affine=True)
[18:06:07.985193] Loaded Index: blocks.8.attn.qkv.weight from Saved Weights
      (attn): Attention(
        (qkv): Linear(in_features=384, out_features=1152, bias=True)
        (attn_drop): Dropout(p=0.0, inplace=False)
        (proj): Linear(in_features=384, out_features=384, bias=True)
        (proj_drop): Dropout(p=0.0, inplace=False)
      )
      (drop_path): DropPath()
      (norm2): LayerNorm((384,), eps=1e-06, elementwise_affine=True)
      (mlp): Mlp(
        (fc1): Linear(in_features=384, out_features=1536, bias=True)
        (act): GELU(approximate='none')
        (fc2): Linear(in_features=1536, out_features=384, bias=True)
        (drop): Dropout(p=0.0, inplace=False)
      )
    )
  )
  (head): Linear(in_features=384, out_features=14, bias=True)
  (fc_norm): LayerNorm((384,), eps=1e-06, elementwise_affine=True)
)
[18:06:07.983278] number of params (M): 21.67
[18:06:07.985201] Loaded Index: blocks.8.attn.qkv.bias from Saved Weights
[18:06:07.983291] base lr: 2.50e-04
[18:06:07.983298] actual lr: 1.00e-03
[18:06:07.983304] accumulate grad iterations: 1
[18:06:07.985208] Loaded Index: blocks.8.attn.proj.weight from Saved Weights
[18:06:07.983310] effective batch size: 1024
[18:06:07.985216] Loaded Index: blocks.8.attn.proj.bias from Saved Weights
[18:06:07.986367] Model = VisionTransformer(
  (patch_embed): PatchEmbed(
    (proj): Conv2d(3, 384, kernel_size=(16, 16), stride=(16, 16))
  )
  (pos_drop): Dropout(p=0.0, inplace=False)
  (blocks): ModuleList(
    (0): Block(
      (norm1): LayerNorm((384,), eps=1e-06, elementwise_affine=True)
      (attn): Attention(
        (qkv): Linear(in_features=384, out_features=1152, bias=True)
        (attn_drop): Dropout(p=0.0, inplace=False)
        (proj): Linear(in_features=384, out_features=384, bias=True)
        (proj_drop): Dropout(p=0.0, inplace=False)
      )
      (drop_path): Identity()
      (norm2): LayerNorm((384,), eps=1e-06, elementwise_affine=True)
      (mlp): Mlp(
        (fc1): Linear(in_features=384, out_features=1536, bias=True)
        (act): GELU(approximate='none')
        (fc2): Linear(in_features=1536, out_features=384, bias=True)
        (drop): Dropout(p=0.0, inplace=False)
      )
    )
    (1-11): 11 x Block(
      (norm1): LayerNorm((384,), eps=1e-06, elementwise_affine=True)
[18:06:07.985223] Loaded Index: blocks.8.norm2.weight from Saved Weights
      (attn): Attention(
        (qkv): Linear(in_features=384, out_features=1152, bias=True)
        (attn_drop): Dropout(p=0.0, inplace=False)
        (proj): Linear(in_features=384, out_features=384, bias=True)
        (proj_drop): Dropout(p=0.0, inplace=False)
      )
      (drop_path): DropPath()
      (norm2): LayerNorm((384,), eps=1e-06, elementwise_affine=True)
      (mlp): Mlp(
        (fc1): Linear(in_features=384, out_features=1536, bias=True)
        (act): GELU(approximate='none')
        (fc2): Linear(in_features=1536, out_features=384, bias=True)
        (drop): Dropout(p=0.0, inplace=False)
      )
    )
  )
  (head): Linear(in_features=384, out_features=14, bias=True)
  (fc_norm): LayerNorm((384,), eps=1e-06, elementwise_affine=True)
)
[18:06:07.985231] Loaded Index: blocks.8.norm2.bias from Saved Weights
[18:06:07.986392] number of params (M): 21.67
[18:06:07.985238] Loaded Index: blocks.8.mlp.fc1.weight from Saved Weights
[18:06:07.986404] base lr: 2.50e-04
[18:06:07.985246] Loaded Index: blocks.8.mlp.fc1.bias from Saved Weights
[18:06:07.986412] actual lr: 1.00e-03
[18:06:07.985253] Loaded Index: blocks.8.mlp.fc2.weight from Saved Weights
[18:06:07.986419] accumulate grad iterations: 1
[18:06:07.985271] Loaded Index: blocks.8.mlp.fc2.bias from Saved Weights
[18:06:07.986425] effective batch size: 1024
[18:06:07.985278] Loaded Index: blocks.9.norm1.weight from Saved Weights
[18:06:07.997249] Model = VisionTransformer(
  (patch_embed): PatchEmbed(
    (proj): Conv2d(3, 384, kernel_size=(16, 16), stride=(16, 16))
  )
  (pos_drop): Dropout(p=0.0, inplace=False)
  (blocks): ModuleList(
    (0): Block(
      (norm1): LayerNorm((384,), eps=1e-06, elementwise_affine=True)
      (attn): Attention(
        (qkv): Linear(in_features=384, out_features=1152, bias=True)
        (attn_drop): Dropout(p=0.0, inplace=False)
        (proj): Linear(in_features=384, out_features=384, bias=True)
        (proj_drop): Dropout(p=0.0, inplace=False)
      )
      (drop_path): Identity()
      (norm2): LayerNorm((384,), eps=1e-06, elementwise_affine=True)
      (mlp): Mlp(
        (fc1): Linear(in_features=384, out_features=1536, bias=True)
        (act): GELU(approximate='none')
        (fc2): Linear(in_features=1536, out_features=384, bias=True)
        (drop): Dropout(p=0.0, inplace=False)
      )
    )
    (1-11): 11 x Block(
      (norm1): LayerNorm((384,), eps=1e-06, elementwise_affine=True)
[18:06:07.985285] Loaded Index: blocks.9.norm1.bias from Saved Weights
      (attn): Attention(
        (qkv): Linear(in_features=384, out_features=1152, bias=True)
        (attn_drop): Dropout(p=0.0, inplace=False)
        (proj): Linear(in_features=384, out_features=384, bias=True)
        (proj_drop): Dropout(p=0.0, inplace=False)
      )
      (drop_path): DropPath()
      (norm2): LayerNorm((384,), eps=1e-06, elementwise_affine=True)
      (mlp): Mlp(
        (fc1): Linear(in_features=384, out_features=1536, bias=True)
        (act): GELU(approximate='none')
        (fc2): Linear(in_features=1536, out_features=384, bias=True)
        (drop): Dropout(p=0.0, inplace=False)
      )
    )
  )
  (head): Linear(in_features=384, out_features=14, bias=True)
  (fc_norm): LayerNorm((384,), eps=1e-06, elementwise_affine=True)
)
[18:06:07.997271] number of params (M): 21.67
[18:06:07.997284] base lr: 2.50e-04
[18:06:07.997291] actual lr: 1.00e-03
[18:06:07.997297] accumulate grad iterations: 1
[18:06:07.997303] effective batch size: 1024
[18:06:07.985293] Loaded Index: blocks.9.attn.qkv.weight from Saved Weights
[18:06:08.059500] criterion = BCEWithLogitsLoss()
[18:06:08.059528] Start training for 100 epochs
…
.bias', 'decoder_blocks.1.attn.proj.weight', 'decoder_blocks.1.attn.proj.bias', 'decoder_blocks.1.norm2.weight', 'decoder_blocks.1.norm2.bias', 'decoder_blocks.1.mlp.fc1.weight', 'decoder_blocks.1.mlp.fc1.bias', 'decoder_blocks.1.mlp.fc2.weight', 'decod[18:06:07.963625] Loaded Index: blocks.5.mlp.fc1.bias from Saved Weights
er_blocks.1.mlp.fc2.bias', 'decoder_norm.weight', 'decoder_norm.bias', 'decoder_pred.weight', 'decoder_pred.bias'])
[18:06:07.963632] Loaded Index: blocks.5.mlp.fc2.weight from Saved Weights
[18:06:07.996036] Model = VisionTransformer(
  (patch_embed): PatchEmbed(
    (proj): Conv2d(3, 384, kernel_size=(16, 16), stride=(16, 16))
  )
  (pos_drop): Dropout(p=0.0, inplace=False)
  (blocks): ModuleList(
    (0): Block(
      (norm1): LayerNorm((384,), eps=1e-06, elementwise_affine=True)
      (attn): Attention(
        (qkv): Linear(in_features=384, out_features=1152, bias=True)
        (attn_drop): Dropout(p=0.0, inplace=False)
        (proj): Linear(in_features=384, out_features=384, bias=True)
        (proj_drop): Dropout(p=0.0, inplace=False)
      )
      (drop_path): Identity()
      (norm2): LayerNorm((384,), eps=1e-06, elementwise_affine=True)
      (mlp): Mlp(
        (fc1): Linear(in_features=384, out_features=1536, bias=True)
        (act): GELU(approximate='none')
        (fc2): Linear(in_features=1536, out_features=384, bias=True)
        (drop): Dropout(p=0.0, inplace=False)
      )
    )
    (1-11): 11 x Block(
      (norm1): LayerNorm((384,), eps=1e-06, elementwise_affine=True)
[18:06:07.963640] Loaded Index: blocks.5.mlp.fc2.bias from Saved Weights
      (attn): Attention(
        (qkv): Linear(in_features=384, out_features=1152, bias=True)
        (attn_drop): Dropout(p=0.0, inplace=False)
        (proj): Linear(in_features=384, out_features=384, bias=True)
        (proj_drop): Dropout(p=0.0, inplace=False)
      )
      (drop_path): DropPath()
      (norm2): LayerNorm((384,), eps=1e-06, elementwise_affine=True)
      (mlp): Mlp(
        (fc1): Linear(in_features=384, out_features=1536, bias=True)
        (act): GELU(approximate='none')
        (fc2): Linear(in_features=1536, out_features=384, bias=True)
        (drop): Dropout(p=0.0, inplace=False)
      )
    )
  )
  (head): Linear(in_features=384, out_features=14, bias=True)
  (fc_norm): LayerNorm((384,), eps=1e-06, elementwise_affine=True)
)
[18:06:07.996061] number of params (M): 21.67
[18:06:07.996074] base lr: 2.50e-04
[18:06:07.996081] actual lr: 1.00e-03
[18:06:07.996087] accumulate grad iterations: 1
[18:06:07.996093] effective batch size: 1024
[18:06:07.963647] Loaded Index: blocks.6.norm1.weight from Saved Weights
[18:06:07.996250] Model = VisionTransformer(
  (patch_embed): PatchEmbed(
    (proj): Conv2d(3, 384, kernel_size=(16, 16), stride=(16, 16))
  )
  (pos_drop): Dropout(p=0.0, inplace=False)
  (blocks): ModuleList(
    (0): Block(
      (norm1): LayerNorm((384,), eps=1e-06, elementwise_affine=True)
      (attn): Attention(
        (qkv): Linear(in_features=384, out_features=1152, bias=True)
        (attn_drop): Dropout(p=0.0, inplace=False)
        (proj): Linear(in_features=384, out_features=384, bias=True)
        (proj_drop): Dropout(p=0.0, inplace=False)
      )
      (drop_path): Identity()
      (norm2): LayerNorm((384,), eps=1e-06, elementwise_affine=True)
      (mlp): Mlp(
        (fc1): Linear(in_features=384, out_features=1536, bias=True)
        (act): GELU(approximate='none')
        (fc2): Linear(in_features=1536, out_features=384, bias=True)
        (drop): Dropout(p=0.0, inplace=False)
      )
    )
    (1-11): 11 x Block(
      (norm1): LayerNorm((384,), eps=1e-06, elementwise_affine=True)
[18:06:07.963654] Loaded Index: blocks.6.norm1.bias from Saved Weights
      (attn): Attention(
        (qkv): Linear(in_features=384, out_features=1152, bias=True)
        (attn_drop): Dropout(p=0.0, inplace=False)
        (proj): Linear(in_features=384, out_features=384, bias=True)
        (proj_drop): Dropout(p=0.0, inplace=False)
      )
      (drop_path): DropPath()
      (norm2): LayerNorm((384,), eps=1e-06, elementwise_affine=True)
      (mlp): Mlp(
        (fc1): Linear(in_features=384, out_features=1536, bias=True)
        (act): GELU(approximate='none')
        (fc2): Linear(in_features=1536, out_features=384, bias=True)
        (drop): Dropout(p=0.0, inplace=False)
      )
    )
  )
  (head): Linear(in_features=384, out_features=14, bias=True)
  (fc_norm): LayerNorm((384,), eps=1e-06, elementwise_affine=True)
[18:06:07.963662] Loaded Index: blocks.6.attn.qkv.weight from Saved Weights
)
[18:06:07.996276] number of params (M): 21.67
[18:06:07.963669] Loaded Index: blocks.6.attn.qkv.bias from Saved Weights
[18:06:07.996289] base lr: 2.50e-04
[18:06:07.963677] Loaded Index: blocks.6.attn.proj.weight from Saved Weights
[18:06:07.996296] actual lr: 1.00e-03
[18:06:07.963684] Loaded Index: blocks.6.attn.proj.bias from Saved Weights
…
